models/cgcnn_best.pt (torch, 305525 bytes, 48 tensors)

embedding.weight f4 [64, 4]
0	0x3b51ae3d	0.0031994723
1	0xbe17145f	-0.14753865
2	0xbb296353	-0.0025846555
3	0x3f9177fa	1.1364739
4	0xbd1a985c	-0.037742957
5	0xbd6a1c1c	-0.057155713
6	0x3f187bc2	0.5956384
7	0x3f192348	0.5981946
8	0xbc24acaf	-0.010050937
9	0x3bc1fe1b	0.0059201843
10	0x3da11022	0.07864405
11	0xbda96bda	-0.08272524
12	0xbccddc14	-0.025129355
13	0x3dc54f14	0.096342236
14	0x3e8608b7	0.26178524
15	0xbf424272	-0.7588264
16	0x3bca4219	0.0061724302
17	0x3c87ff7c	0.016601317
18	0xbe021485	-0.1270314
19	0xbddac9aa	-0.106829956
20	0x3cec1188	0.028816953
21	0xbe17bce7	-0.14818154
22	0xbf0b8b2c	-0.54509234
23	0x3cc27343	0.023736602
24	0xbd938eac	-0.07204947
25	0x3c5f3b49	0.0136249745
26	0xbdd6fa13	-0.104969166
27	0xbe90bf35	-0.2827088
28	0x3d47215d	0.048615802
29	0xbd891427	-0.06693297
30	0xbf39f97d	-0.72646314
31	0x3e520848	0.20510972
32	0xbc984250	-0.018586308
33	0x3d9b6827	0.07588225
34	0x3e0b74f5	0.13618834
35	0xbf3d2d01	-0.73896796
36	0x3c788e15	0.015170594
37	0x3da1d2e0	0.07901549
38	0x3e1b8635	0.15187915
39	0x3efaf8f1	0.49018052
40	0x3c399dc7	0.011329121
41	0xb9b5df95	-0.00034689592
42	0xbe5591cf	-0.20856403
43	0xbe65ff21	-0.22460605
44	0xbbe605d5	-0.007019738
45	0x3cc8fa02	0.024533276
46	0x3e3fc7fd	0.18728633
47	0xbe13cdd7	-0.1443399
48	0xbd2e8136	-0.042603694
49	0xbee14060	-0.43994427
50	0x3e980560	0.296916
51	0xbed75801	-0.4205933
52	0x3c217d1c	0.009856489
53	0xbcf7bd94	-0.030241765
54	0xbcae6c93	-0.021292007
55	0x3e89818b	0.26856646
56	0xbe26a022	-0.16272023
57	0x3c4d50dd	0.012531486
58	0x3edd622e	0.43238968
59	0x3f16a483	0.58844775
60	0x3b559a45	0.0032593173
61	0xbedcda53	-0.43135318
62	0x3eb603fd	0.35549918
63	0xbecab7f0	-0.39593458
64	0x3cef4d96	0.0292118
65	0xbaefb26d	-0.0018287428
66	0xbe74c3b4	-0.2390278
67	0x3c8e5aa5	0.017377207
68	0xbc8d18c2	-0.01722372
69	0x3daa704e	0.08322202
70	0x3ed80424	0.4219066
71	0xbe82d98f	-0.2555661
72	0xbc7fa62b	-0.015603582
73	0xbda51c3c	-0.08062026
74	0x3eb3852b	0.35062537
75	0x3f2c07ca	0.67199385
76	0x3c8573bd	0.01629054
77	0x3d25b844	0.040458933
78	0x3e6fe3d0	0.23426747
79	0xbe5aeddc	-0.21379799
80	0xbcbe0447	-0.023195399
81	0xbce91eb6	-0.028457027
82	0x3efc21ae	0.49244446
83	0x3eb1bbd7	0.34713623
84	0x3c976c66	0.018484306
85	0xbd301d93	-0.042996954
86	0xbebde1be	-0.3708629
87	0x3d28168c	0.041037127
88	0xbd1356c9	-0.035971437
89	0x3de622ff	0.11237144
90	0x3ea4e736	0.3220765
91	0xbf457481	-0.77130896
92	0xbc82ef3b	-0.015983215
93	0xbc37ab0b	-0.011210213
94	0x3e96ad9d	0.2942933
95	0x3e654cd5	0.2239259
96	0x3c1ba86b	0.009500603
97	0x3d568637	0.05237409
98	0xbe6e66c8	-0.23281395
99	0xbed83541	-0.4222813
100	0x3d3e4663	0.046453845
101	0x3d593be1	0.05303562
102	0xbf380263	-0.7187864
103	0xbf2855d3	-0.6575596
104	0x3c3644fe	0.011124847
105	0x3cbfc4cf	0.023409275
106	0xbe14984b	-0.1451122
107	0xbb99995c	-0.0046874713
108	0xbd358229	-0.044313584
109	0xbdc2b8b6	-0.09507887
110	0x3ea757df	0.32684228
111	0x3e1eee7b	0.1552066
112	0x3c210b0a	0.009829292
113	0x3d129821	0.035789613
114	0xbe3aa402	-0.18226627
115	0xbee30afc	-0.44344318
116	0x3c515af6	0.012778034
117	0xbc50b17c	-0.012737628
118	0xbe6af5f3	-0.22945385
119	0xbd975807	-0.07389837
120	0x3bf82f17	0.007573973
121	0x3db413cd	0.08792839
122	0x3e789745	0.24276455
123	0x3e8b1810	0.27166796
124	0xbc03ed58	-0.008052193
125	0x3d28fc05	0.04125597
126	0x3e525bc2	0.20542815
127	0x3e382dd6	0.17986235
128	0xbc265bab	-0.010153691
129	0xbe748840	-0.238801
130	0xbb83c726	-0.004021543
131	0xbf1b7ca1	-0.60737044
132	0xbb4f3cc0	-0.0031621903
133	0xbe4838c0	-0.19552898
134	0x3e9a1b5f	0.30099007
135	0xbea42813	-0.32061824
136	0xbc44f13e	-0.012020407
137	0x3e78f4c9	0.24312128
138	0x3b2f6336	0.0026762015
139	0xbf6a3ac2	-0.9149591
140	0xbcaf4c88	-0.021398798
141	0x3e073603	0.13204198
142	0x3ebaba7a	0.36470395
143	0xbf7eb87f	-0.9950027
144	0xbc661cc5	-0.014044945
145	0xbeb5b069	-0.35486153
146	0x3eb3ef1f	0.35143372
147	0xbe880cfc	-0.26572406
148	0xbd368ebd	-0.04456972
149	0x3cd691d9	0.026192592
150	0x3f4812e3	0.7815382
151	0x3e3b56ee	0.1829488
152	0xbaf7ae58	-0.0018896563
153	0xbc1494a1	-0.009068639
154	0x3d043e3b	0.03228591
155	0xbf66afc2	-0.90111935
156	0x3d88eea5	0.06686143
157	0xbd0346ae	-0.032049827
158	0xbdcabe28	-0.09899551
159	0x3f1e5bbb	0.6185872
160	0x3d57967f	0.05263376
161	0xbdd7d3e1	-0.105384596
162	0xbf8be49f	-1.0929145
163	0xbe807fe5	-0.25097576
164	0x3cb36907	0.021900667
165	0xbcfe6ce4	-0.031057782
166	0xbe96c1c9	-0.2944472
167	0x3e029c60	0.12754965
168	0x3a12812d	0.00055887067
169	0x3d2b08a4	0.041756287
170	0xbe74ae96	-0.23894724
171	0xbf4e390d	-0.805558
172	0xbdafc6bf	-0.0858283
173	0xbdf25a8e	-0.11833678
174	0x3f1debbd	0.61687833
175	0x3f19f849	0.6014448
176	0x3d3a6c02	0.04551316
177	0xbdb9970f	-0.09062015
178	0xbf0de273	-0.5542366
179	0x3ea4cf63	0.32189474
180	0xbd042c91	-0.032269064
181	0x3c74a676	0.0149322655
182	0x3ebf636d	0.37380543
183	0xbdaf3495	-0.08554951
184	0x3c09db3b	0.008414085
185	0xbd0b907b	-0.034073334
186	0xbcab242c	-0.020891272
187	0x3eb4876e	0.35259575
188	0xbca56830	-0.020191282
189	0x3d469e6e	0.048490934
190	0x3f2a97d4	0.6663792
191	0x3e62df47	0.22155486
192	0xbc7a36bb	-0.015271838
193	0x3da689eb	0.081317745
194	0x3e6f5e9a	0.23375931
195	0xbf136069	-0.57568985
196	0xbc71b109	-0.014751681
197	0xbd6ebb45	-0.058284063
198	0xbeec2c56	-0.46127576
199	0xbdcf1b6d	-0.10112653
200	0x3ccf6621	0.025317254
201	0xbd8f7b5e	-0.07005952
202	0xbe003eba	-0.12523928
203	0x3eeaeb86	0.45882815
204	0x3d8cd6a4	0.06876877
205	0xbe014522	-0.12624028
206	0xbed4f340	-0.41591835
207	0x3ed4ac80	0.41537857
208	0x3d06e3d7	0.03293213
209	0x3ddda808	0.10823065
210	0xbf14a20e	-0.58059776
211	0xbf4b13db	-0.7932717
212	0x3b4c5095	0.003117596
213	0xbd6a5813	-0.0572129
214	0x3c3572e5	0.011074756
215	0x3ed14d26	0.40879172
216	0x3bebf2db	0.0072005815
217	0xbceb547c	-0.028726809
218	0xbd28d78e	-0.041221194
219	0x3e600bfc	0.21879572
220	0x3c712463	0.014718148
221	0xbde99fae	-0.114074096
222	0xbd584ea1	-0.05280936
223	0x3f319351	0.6936541
224	0xbc5b6393	-0.01339044
225	0xbc9c0238	-0.019044027
226	0x3e6ebe4f	0.23314784
227	0x3e163c60	0.14671469
228	0xb8f1e7dc	-0.00011534963
229	0x3d8d6e13	0.069057606
230	0xbde640e8	-0.11242849
231	0xbf1f9eb5	-0.6235154
232	0xbb713014	-0.0036802338
233	0xbd3a7e94	-0.04553087
234	0x3de01468	0.10941392
235	0x3e8b2949	0.27179936
236	0xbcea87d5	-0.028629223
237	0xbc8db1d2	-0.017296705
238	0x3ed94657	0.42436478
239	0x3e0599fb	0.1304702
240	0x3ce9c46d	0.028536046
241	0xbdf65af0	-0.12029064
242	0xbf170060	-0.5898495
243	0x3dca2567	0.09870415
244	0xbcf46793	-0.029834544
245	0xbea7e78f	-0.32793853
246	0xbcdb5c52	-0.02677742
247	0xbeaa99ac	-0.33320367
248	0xbc17891a	-0.009248996
249	0xbbec6d3e	-0.007215171
250	0x3dca4dcc	0.0987812
251	0x3d37047e	0.04468202
252	0xbcf1f96b	-0.029537877
253	0xbd8db91a	-0.06920071
254	0x3f198f7b	0.5998456
255	0x3f1e30d0	0.6179323

embedding.bias f4 [64]
0	0x3e153108	0.14569485
1	0x3d80949f	0.06278347
2	0x3d38ade6	0.045087717
3	0x3dafa30f	0.08576023
4	0x3da1b068	0.07894975
5	0xbe11f1c4	-0.14252383
6	0x3df8f680	0.12156391
7	0xbd869f12	-0.06573309
8	0x3ca2eeb6	0.019889217
9	0x3e2b2490	0.16713166
10	0xbda2c9c5	-0.07948641
11	0x3d184d30	0.037182987
12	0xbd9830fd	-0.07431219
13	0x3da9d203	0.0829201
14	0x3d460a72	0.048349805
15	0xbdd27766	-0.1027668
16	0x3d9cb6bf	0.076520436
17	0x3e0c526d	0.13703318
18	0x3d947521	0.07248903
19	0x3ca00ef5	0.019538382
20	0x3cfc8117	0.030823274
21	0xbd8f99b3	-0.07011738
22	0xbc1213aa	-0.008915821
23	0x3d5b639b	0.053561788
24	0x3c11f2e0	0.008908004
25	0xbdeea36f	-0.11652266
26	0x3dbe8221	0.09302164
27	0x3e1f19ef	0.15537237
28	0xbd8e45c0	-0.069468975
29	0x3b3bfd20	0.002868481
30	0x3e24dc20	0.16099596
31	0x3ddb2e1d	0.10702155
32	0xbc5a1b67	-0.013312197
33	0xbdd545e8	-0.10413724
34	0x3def45fc	0.1168327
35	0x3d87a82b	0.06623872
36	0x3db4cb43	0.088278316
37	0x3d7b1d1b	0.061307054
38	0x3dc2dc95	0.09514729
39	0xbd38c0bc	-0.04510568
40	0xbdc3ccb8	-0.095605314
41	0x3d94dd67	0.07268792
42	0xbd5c76db	-0.053824287
43	0x3c2548e2	0.010088177
44	0xbd94f6e9	-0.07273657
45	0x3bd11e2a	0.0063817697
46	0x3d03d3e5	0.0321845
47	0x3e24bce7	0.16087686
48	0x3d46a986	0.048501514
49	0x3da76360	0.08173251
50	0x3da0ff46	0.078611895
51	0xbc9a1226	-0.018807482
52	0xbd33839d	-0.043826688
53	0x3d1f103e	0.03883385
54	0x3d030983	0.031991493
55	0x3d09663d	0.033544768
56	0x3d6fb9c9	0.058526788
57	0x3d10bc56	0.03533586
58	0x3c1aa633	0.009439039
59	0x3bd0ee82	0.0063760886
60	0x3d5840f0	0.052796304
61	0xbd2cdb46	-0.042201303
62	0xbbd5d63e	-0.006525784
63	0x3c3327bd	0.010934767

convs.0.fc_filter.weight f4 [64, 169]
0	0x3e4ad003	0.19805913
1	0x3e4e88cd	0.20169373
2	0xbc8581af	-0.01629719
3	0xbe418a86	-0.18900499
4	0x3b4c206c	0.0031147255
5	0x3d35fdc5	0.044431467
6	0xbdfc251e	-0.12311767
7	0x3c3d29fc	0.011545654
8	0xbe302375	-0.17201026
9	0xbd88d623	-0.06681468
10	0x3e67157b	0.22566788
11	0xbdee96fb	-0.11649891
12	0xbd19ddb1	-0.037564937
13	0xbe0367b6	-0.12832531
14	0xbd4756de	-0.048666827
15	0x3dbd7e15	0.09252564
16	0x3daa59e6	0.08317928
17	0xbd647a32	-0.055780597
18	0x3e6af826	0.22946224
19	0x3e0be595	0.13661797
20	0x3db256f5	0.08707992
21	0x3d91069e	0.0708134
22	0xbe8c2fff	-0.27380368
23	0xbe6774aa	-0.22603098
24	0xbd1ab57d	-0.037770737
25	0xbe79adff	-0.2438278
26	0xbcdeb1a1	-0.02718431
27	0xbbaea131	-0.005329274
28	0xbd30bd8f	-0.043149527
29	0xbd46105b	-0.04835544
30	0xbc87697e	-0.016529795
31	0xbe09a728	-0.13442671
32	0xbd28bd58	-0.041196197
33	0x3eaa2858	0.33233905
34	0xbed1fa31	-0.41011193
35	0xbe059355	-0.13044484
36	0x3bf82c0b	0.0075736097
37	0x3e945e1d	0.28978053
38	0xbe57e70c	-0.21084231
39	0x3e41c78f	0.18923782
40	0xbe1bb241	-0.15204717
41	0xbd3b58b6	-0.0457389
42	0xbc6355e0	-0.013875455
43	0x3d6e5479	0.05818603
44	0x3a9a691a	0.001178059
45	0xbe1a396a	-0.15060964
46	0x3e383f15	0.17992814
47	0x3d9c8bd4	0.076438576
48	0xbd8d1b86	-0.06890015
49	0xbdb607b0	-0.08888185
50	0x3d57da28	0.052698284
51	0x3e0bc4dd	0.13649316
52	0xbee990d4	-0.45618308
53	0x3a8040ea	0.0009784971
54	0x3d14a989	0.036294494
55	0x3df09665	0.117474355
56	0xbde1b66d	-0.11021123
57	0xbe879b48	-0.26485658
58	0x3e293b75	0.16526587
59	0xbd22b880	-0.039726734
60	0xbe19c3ef	-0.15016149
61	0x3de12ad9	0.10994501
62	0x3d8b69ad	0.068072654
63	0x3ec2d20d	0.3805088
64	0xbe82589d	-0.25458232
65	0xbebc048b	-0.36722216
66	0x3ca7ea60	0.0204975
67	0x3e4e9a54	0.20176059
68	0x3de39e89	0.111142226
69	0xbdcff2e3	-0.10153749
70	0xba57786e	-0.00082195445
71	0xbbb555cb	-0.005533909
72	0x3e9aed07	0.30258963
73	0x3d10284e	0.035194688
74	0x3e22f598	0.15913999
75	0x3e3cfced	0.18455859
76	0x3e1b8eb6	0.15191159
77	0xbe4be84c	-0.19912833
78	0xbda97571	-0.08274353
79	0x3ddd51c3	0.108066104
80	0x3d9a0c16	0.075218365
81	0xbe3e43f4	-0.1858061
82	0xbdf95da9	-0.121760674
83	0x3d2b2d6f	0.041791376
84	0xbe77fa37	-0.24216543
85	0x3d8e0d81	0.069361694
86	0x3e824c6f	0.2544894
87	0xbd4ff00f	-0.050766047
88	0x3e0a706e	0.13519451
89	0x3ecb5dba	0.39719945
90	0x3c8365b7	0.016039712
91	0x3c6ae690	0.014337197
92	0x3e661d6d	0.22472163
93	0x3d7345a1	0.059392575
94	0xbe2a954e	-0.16658518
95	0xbe5be932	-0.21475676
96	0x3e49c9e6	0.19705924
97	0x3e45bc4a	0.19310108
98	0x3d8e3013	0.06942763
99	0x3e54a379	0.20765485
100	0xbb991095	-0.004671166
101	0x3e490907	0.1963235
102	0x3e03c5bf	0.12868403
103	0x3d8c21cb	0.06842383
104	0xbdcf9f01	-0.101377495
105	0xbd661b85	-0.05617859
106	0x3e02ebcd	0.12785263
107	0xbdc6bbc5	-0.09703783
108	0xbdf8f966	-0.12156944
109	0x3d7e6528	0.06210819
110	0xbdd47279	-0.103733964
111	0xbd97c0d1	-0.07409824
112	0x3dac3ee5	0.08410434
113	0xbdb1ee70	-0.086880565
114	0xbe2775c2	-0.16353515
115	0xbda30f73	-0.07961931
116	0xbb896665	-0.0041931146
117	0xbcea302c	-0.028587423
118	0xbd52d709	-0.051474605
119	0xbdfd4305	-0.123662986
120	0xbe4294ff	-0.1900215
121	0x3e67a659	0.2262205
122	0x3e2d3568	0.16914904
123	0xbe77e5f6	-0.24208817
124	0xbd93a285	-0.072087325
125	0xbd501571	-0.050801698
126	0xbce572bb	-0.02800881
127	0x3c2b48e4	0.01045439
128	0xbd961a8c	-0.07329282
129	0xbbddcd05	-0.006768825
130	0x3dc151d1	0.09439433
131	0x40047fff	2.0703123
132	0x40146393	2.3185775
133	0x3ff814b0	1.9381313
134	0x3f8b3177	1.087447
135	0x3f1f2153	0.62160224
136	0x3ff40c0c	1.9066176
137	0x3ee17e80	0.44041824
138	0x3ebbb179	0.36658838
139	0xbef12421	-0.47097877
140	0xbef40991	-0.4766355
141	0xbeb76dde	-0.3582601
142	0xbf0d8725	-0.5528434
143	0xbe3f9240	-0.18708134
144	0x3e9b04cf	0.30277106
145	0xbe8058fb	-0.25067887
146	0xbed097ae	-0.40740722
147	0xbc32cee2	-0.0109135825
148	0x3f06e04b	0.52685994
149	0xbe213d33	-0.15746002
150	0xbdd82d14	-0.10555473
151	0xbea0191b	-0.31269154
152	0x3d2f8ca4	0.042858735
153	0x3e9ca092	0.30591255
154	0x3e03eac5	0.12882526
155	0x3b8d569c	0.004313303
156	0x3d72ad0b	0.059247058
157	0x3e4b64ec	0.19862717
158	0xbe828758	-0.25493884
159	0xbe72095b	-0.23636381
160	0x3e883d40	0.2660923
161	0x3ebfb3df	0.37441918
162	0xbcd4c474	-0.025972582
163	0xbe1a2981	-0.15054895
164	0xbda33a46	-0.07970099
165	0xbf0482f6	-0.5176233
166	0xbec1dae2	-0.37862307
167	0xbef65b47	-0.48116514
168	0x3ccfe66b	0.025378427
169	0xbd17e56d	-0.03708403
170	0xbe3a277f	-0.18179129
171	0xbe73dad9	-0.23813953
172	0xbea73ed7	-0.3266513
173	0x3e86afde	0.2630605
174	0x3b207827	0.002448568
175	0xbe996212	-0.29957634
176	0x3ed058fc	0.4069289
177	0x3e086a51	0.13321806
178	0x3d85c0a7	0.06530886
179	0xbcd94782	-0.026523355
180	0x3d8cade1	0.06869102
181	0xbe85cf55	-0.26134744
182	0xbdd32fcc	-0.10311851
183	0xbe9a88ab	-0.30182394
184	0x3e44c80f	0.19216941
185	0x3edd7375	0.4325215
186	0xbd7f8de2	-0.06239117
187	0x3d97fec9	0.07421643
188	0x3e76065c	0.24025863
189	0xbe9f2133	-0.31080016
190	0x3e0e1223	0.13874106
191	0xbe5f383c	-0.21798795
192	0xbc1c6239	-0.0095449025
193	0xbe2ee21e	-0.17078444
194	0x3e8c09e4	0.27351296
195	0x3d733c4a	0.059383668
196	0xbeb450e0	-0.35217953
197	0xbd3655f6	-0.044515572
198	0xbd50e1c7	-0.050996568
199	0x3e889323	0.26674756
200	0xbcb4318d	-0.021996284
201	0xbd57daab	-0.052698772
202	0x3ddf3204	0.108982116
203	0xbdaa9ba7	-0.083304696
204	0xbd233a50	-0.039850533
205	0x3b861f94	0.00409312
206	0xbeb5f799	-0.35540465
207	0xbbeeaa82	-0.0072835097
208	0x3e7b6b2e	0.24552605
209	0x3e3dda29	0.18540253
210	0xbe8b28bd	-0.27179518
211	0xbd46183c	-0.048362955
212	0xbeb9373d	-0.36174956
213	0x3ec81d89	0.39085034
214	0xbeab9598	-0.33512568
215	0x3d16a0fb	0.036774617
216	0x3e6e1a64	0.23252255
217	0x3b8c994a	0.0042907344
218	0xbe1c156a	-0.15242544
219	0x3e3d8ae7	0.18510018
220	0x3e95f063	0.29284963
221	0x3e11005d	0.14160295
222	0x3d3721ab	0.044709843
223	0x3db0454e	0.08606969
224	0x3d37d393	0.044879507
225	0xbe31eb98	-0.17375028
226	0xbe2c0ba6	-0.16801319
227	0x3e3e03e9	0.18556179
228	0xbed1b3c0	-0.4095745
229	0x3d92e5ce	0.07172738
230	0xbe16591f	-0.14682434
231	0xbccfe0c9	-0.02537574
232	0xbdbbf05f	-0.091767065
233	0xbdbefe8f	-0.09325897
234	0xbde9a1c7	-0.1140781
235	0x3ded7ed4	0.11596456
236	0x3e24c95d	0.16092439
237	0xbe3fffe8	-0.18749964
238	0x3e3872b6	0.18012509
239	0x3c745349	0.014912435
240	0xbe515678	-0.20443141
241	0xbd2d4d0b	-0.042309802
242	0x3c93b0ff	0.018028734
243	0xbcd5104e	-0.026008751
244	0x3e60c0ae	0.21948501
245	0x3e2184c8	0.15773308
246	0x3c5eac27	0.013590849
247	0x3d989c4f	0.074516885
248	0x3dfaf5ce	0.12253915
249	0xbe65e79d	-0.22451635
250	0xbec0269e	-0.37529463
251	0xbda69e19	-0.081356235
252	0xbce64846	-0.028110635
253	0x3c07b74a	0.008283446
254	0x3db9739c	0.09055254
255	0x3e32f2ec	0.1747548

convs.0.fc_filter.bias f4 [64]
0	0xba468ade	-0.00075737934
1	0xbb715a6a	-0.0036827573
2	0xbc386fba	-0.011257106
3	0xbb3abf86	-0.0028495505
4	0xb91f8118	-0.00015211513
5	0xbbfd08dc	-0.0077220034
6	0xbb9e6b6b	-0.0048345826
7	0x3d03bb65	0.032161135
8	0xba41ad92	-0.000738823
9	0xbca32e89	-0.01991965
10	0x3b32128a	0.0027171695
11	0xbb15e9e9	-0.0022875017
12	0x3aaaeb3e	0.0013040078
13	0xbc411888	-0.011785634
14	0x39b95e11	0.00035356035
15	0x3c53653e	0.012902556
16	0x39fe638c	0.00048520823
17	0x3a230c64	0.0006219803
18	0xbc055ee5	-0.0081403
19	0x3ad271ad	0.0016055607
20	0xbb1a845f	-0.0023577434
21	0x3b8b2a6c	0.0042470004
22	0x3b03d054	0.0020113187
23	0x3a36356f	0.0006950711
24	0xbc090204	-0.008362297
25	0xb96b9a4e	-0.0002246883
26	0x3a63ae71	0.00086853566
27	0x3b3acd0a	0.002850356
28	0x3aae4348	0.0013295198
29	0xbb2d53bc	-0.0026447615
30	0x389f3c07	7.592892e-05
31	0xb78394b9	-1.5685671e-05
32	0x3b9fcf18	0.0048769824
33	0xba8c7cef	-0.0010718385
34	0x3c54bbb1	0.012984202
35	0x3af1b4e7	0.0018440754
36	0x3c30965a	0.010778034
37	0x385c54ce	5.2531068e-05
38	0xbd181ec1	-0.037138704
39	0xbca58514	-0.020205058
40	0x3b8e35db	0.004339916
41	0x3c6f3d96	0.014602086
42	0x3bb9c0e8	0.005668748
43	0xbb80cbbc	-0.003930537
44	0x3d9a3b1b	0.07530805
45	0xbb6dafd0	-0.0036268122
46	0xbb10f87c	-0.0022120764
47	0x3a158d23	0.000570493
48	0xbb0416e7	-0.0020155252
49	0xb9f27f7d	-0.00046252823
50	0x3b299f35	0.0025882248
51	0x396a2750	0.00022330624
52	0xbc049b28	-0.008093633
53	0x3c0415f8	0.008061878
54	0x3b1e9240	0.0024196059
55	0xbb11f74d	-0.0022272647
56	0xb8a49194	-7.8472454e-05
57	0x39b20d90	0.0003396091
58	0xbbb93c18	-0.0056529157
59	0x3b16ffcb	0.0023040648
60	0x38a12644	7.684206e-05
61	0x3b861b7f	0.0040926333
62	0x3b8e9354	0.004351059
63	0x3b0e22d3	0.0021688237

convs.0.bn_filter.weight f4 [64]
0	0x3fbe5092	1.4868338
1	0x3fcb24ff	1.5870665
2	0x3fd86a98	1.690753
3	0x3f862507	1.048005
4	0x3f9bf4ac	1.2184043
5	0x3f98e543	1.1944965
6	0x3fb60545	1.4220358
7	0x3fdff9ef	1.7498149
8	0x3f9ed209	1.2407848
9	0x3f8dd8a8	1.1081743
10	0x3faa7673	1.3317398
11	0x3f571f42	0.8403207
12	0x3f4e0e3f	0.8049049
13	0x3f5b0974	0.855613
14	0x3f63f9a2	0.89052784
15	0x3faff1df	1.3745688
16	0x3f32f052	0.6989795
17	0x3f8803c8	1.0626154
18	0x3fb0eee7	1.3822907
19	0x3ff76f7a	1.9330895
20	0x3f87c2de	1.0606344
21	0x3fc13ae9	1.5096103
22	0x3f6130ab	0.87964886
23	0x3f991da2	1.1962168
24	0x3fe9eccd	1.8275391
25	0x3f85c5a8	1.0450945
26	0x3fa31a44	1.2742391
27	0x3f8c80ef	1.0976847
28	0x3f9b893f	1.2151259
29	0x3fa9f117	1.32767
30	0x3f8ab8f7	1.0837697
31	0x3f87f97a	1.0623009
32	0x3f94ee64	1.1635251
33	0x3f7e60bf	0.9936637
34	0x3f70aa1f	0.94009584
35	0x3f80962e	1.0045831
36	0x3fbdf59a	1.4840577
37	0x3f8cb84f	1.0993747
38	0x3fecca88	1.8499308
39	0x3fd7fe81	1.6874543
40	0x3fd49573	1.6608108
41	0x3fa32fd0	1.2748966
42	0x3fb9d97d	1.4519497
43	0x3f95cf77	1.1703938
44	0x40117095	2.2724965
45	0x3f8d1e61	1.1024896
46	0x3f84439e	1.0333135
47	0x3f8bc255	1.091868
48	0x3fbc8baf	1.4730128
49	0x3f91d3fa	1.1392815
50	0x3fc056b0	1.5026455
51	0x3f7f6575	0.99764186
52	0x3fc4c567	1.5372742
53	0x3fbbe437	1.4679021
54	0x3f2d3ebc	0.6767385
55	0x3fe5b4b4	1.7945771
56	0x3fbacd3e	1.4593885
57	0x3f85fa2d	1.0466973
58	0x3f957d6f	1.1678904
59	0x3fa4bebe	1.287071
60	0x3f9a5db0	1.2059841
61	0x3f850acb	1.0393919
62	0x3fa847cd	1.3146912
63	0x3f8923fa	1.0714104

convs.0.bn_filter.bias f4 [64]
0	0xbed5f623	-0.4178935
1	0xbecddbec	-0.4020685
2	0xbe96cc4a	-0.29452735
3	0xbe85dae8	-0.26143575
4	0x3ccbb19b	0.024864962
5	0xbcb77bf5	-0.022397975
6	0xbe326ad1	-0.1742356
7	0xbeb94f72	-0.36193424
8	0xbd6ace1e	-0.057325475
9	0xbeb45f73	-0.35229072
10	0xbe20c6a5	-0.15700777
11	0xbef9b382	-0.48769766
12	0xbde1e2e3	-0.11029603
13	0xbd561084	-0.052261844
14	0xbe986e2d	-0.29771557
15	0xbe947c09	-0.2900088
16	0xbf220ec0	-0.63303757
17	0xbeeb1c60	-0.45920086
18	0xbea31395	-0.31850877
19	0xbf0e82a6	-0.55668104
20	0xbcc4fe9a	-0.024047185
21	0x3d844abc	0.06459567
22	0xbef2ac67	-0.47397158
23	0xbeb95786	-0.36199588
24	0xbe97fbc2	-0.29684263
25	0xbf132a36	-0.57486284
26	0xbeca87a2	-0.39556605
27	0xbf2199b2	-0.63125145
28	0xbf1203b4	-0.570369
29	0xbd699f5e	-0.05703675
30	0xbec704c1	-0.38870814
31	0xbeccc541	-0.39994243
32	0xbec5f0f2	-0.3866039
33	0xbee933be	-0.4554729
34	0xbf5e8eed	-0.8693684
35	0xbea65fa2	-0.32494837
36	0xbeaec961	-0.34138015
37	0xbe3a9d71	-0.18224122
38	0xbec26397	-0.37966606
39	0xbee25d97	-0.44212028
40	0xbe3287e2	-0.17434648
41	0xbb995df0	-0.0046803877
42	0xbf11bd63	-0.56929606
43	0xbf107a4e	-0.5643662
44	0xbe521fc8	-0.20519936
45	0xbefde02c	-0.49585092
46	0xbd50772d	-0.050894905
47	0xbe0e4825	-0.13894708
48	0xbead0837	-0.3379533
49	0xbdcb76f4	-0.09934798
50	0xbec8c18d	-0.39210168
51	0xbccd715c	-0.025078468
52	0xbda778a9	-0.08177311
53	0xbeba55f6	-0.36393708
54	0xbf08a71e	-0.5338
55	0xbe8cf2c3	-0.27528962
56	0xbed4cacb	-0.4156097
57	0xbedd5c53	-0.432345
58	0xbf027636	-0.50961626
59	0xbf01e890	-0.5074549
60	0xbed9f04e	-0.4256615
61	0xbb802c7d	-0.0039115534
62	0x3eb67533	0.3563629
63	0xbe6489b6	-0.22318158

convs.0.bn_filter.running_mean f4 [64]
0	0xc00b25ba	-2.1741776
1	0xc0fd09b6	-7.9074354
2	0xc0c17093	-6.044992
3	0xc14ca6c6	-12.790716
4	0xbfb6e189	-1.4287578
5	0xc15680f7	-13.406486
6	0xc0c1b860	-6.0537567
7	0x41611ecc	14.070019
8	0xc090c718	-4.5243034
9	0xc10657bd	-8.3964205
10	0x40f66c43	7.7007155
11	0x411ad42d	9.676801
12	0xc113930b	-9.223399
13	0x40e84cf1	7.2593923
14	0x4164a339	14.289849
15	0x4187b477	16.963118
16	0xc10b6ddb	-8.71432
17	0xc0fb8217	-7.85963
18	0xc10f66d5	-8.962605
19	0x4027d845	2.622575
20	0xc136cf39	-11.425591
21	0x4160303c	14.011776
22	0xc06e149c	-3.720008
23	0x3f7c6596	0.9859251
24	0xc08691ff	-4.205322
25	0x40a801b8	5.25021
26	0x403fb556	2.9954429
27	0x41fc2e24	31.52253
28	0x413221e2	11.133272
29	0xc09f6816	-4.981456
30	0xc0feb304	-7.9593525
31	0xc096341c	-4.693861
32	0x418ca7f4	17.582008
33	0x41240fa2	10.253817
34	0xc06be450	-3.68581
35	0xc1329b83	-11.162967
36	0x41c28cf9	24.318834
37	0xc114bf38	-9.296684
38	0xc0a42a41	-5.130158
39	0xc186c07e	-16.84399
40	0xbfc5063d	-1.5392529
41	0x41187d9b	9.530665
42	0x40bc7008	5.8886757
43	0xc0e9d52e	-7.307273
44	0x4164ad3d	14.2922945
45	0xbfff4791	-1.9943715
46	0xc171bea0	-15.109039
47	0x40a4f848	5.155308
48	0xc11e0992	-9.8773365
49	0xc1333fc2	-11.203066
50	0x40d14c36	6.540553
51	0x40ec6744	7.3876057
52	0xc012cc89	-2.2937338
53	0x41038304	8.219486
54	0xc1420f98	-12.128807
55	0x40831bf9	4.0971646
56	0xc08ef656	-4.4675703
57	0x40cce824	6.4033375
58	0x4043b173	3.0577056
59	0x40deee55	6.9665933
60	0x403c7453	2.9445999
61	0xc0ef1a4e	-7.471961
62	0x41cebaf4	25.841286
63	0xbef60d08	-0.48056817

convs.0.bn_filter.running_var f4 [64]
0	0x4103a9ae	8.228926
1	0x4174e97f	15.307006
2	0x4081385e	4.0381308
3	0x40f4b480	7.6470337
4	0x4165ba2f	14.357955
5	0x4110994b	9.037425
6	0x4199647d	19.174067
7	0x410bd257	8.7388525
8	0x419969f5	19.176737
9	0x40a5474f	5.1649547
10	0x41ab9f0a	21.452656
11	0x415ebc02	13.9209
12	0x41d728ab	26.894857
13	0x41005bc3	8.022403
14	0x41bb49a8	23.410965
15	0x4219ed84	38.48195
16	0x42191ba4	38.276993
17	0x4207596a	33.83732
18	0x4115e452	9.368242
19	0x407195af	3.774761
20	0x41232985	10.197637
21	0x41899374	17.196999
22	0x41bda651	23.70621
23	0x408b1057	4.3457446
24	0x420664b2	33.598335
25	0x41246e5f	10.276946
26	0x4132b909	11.170175
27	0x42d78d21	107.77564
28	0x418ef5df	17.870054
29	0x406c9f42	3.6972203
30	0x40ef586a	7.4795427
31	0x412b41ab	10.703532
32	0x428e45e5	71.13651
33	0x4276cc3e	61.699455
34	0x41ce3c59	25.779467
35	0x41e5eced	28.740686
36	0x4276a893	61.664623
37	0x412c05a5	10.751378
38	0x4179c080	15.609497
39	0x412d94f1	10.848863
40	0x40c5a584	6.1764545
41	0x4181fffa	16.249989
42	0x408cd37f	4.4008174
43	0x4142d5ec	12.177227
44	0x40d9556f	6.791679
45	0x4009e242	2.1544347
46	0x410e6304	8.899174
47	0x41a65e8e	20.79617
48	0x42155e2b	37.34196
49	0x420d2009	35.281284
50	0x4198b7bc	19.089714
51	0x41840f6c	16.50753
52	0x421b9d8d	38.90386
53	0x40fa2ec1	7.8182073
54	0x419620e7	18.766066
55	0x413165ac	11.087322
56	0x4053ce6f	3.3094747
57	0x41a17eba	20.186878
58	0x40b1395c	5.538252
59	0x4106b8d6	8.420126
60	0x40615ddf	3.5213544
61	0x419e366b	19.776571
62	0x422bc9e4	42.94716
63	0x413fcd86	11.987677

convs.0.fc_core.weight f4 [64, 169]
0	0x3e5e2694	0.21694404
1	0x3ed93107	0.42420217
2	0x3ca2a821	0.01985556
3	0xbe5d9a43	-0.21640877
4	0xbc631ac8	-0.013861366
5	0xbe6bea03	-0.23038487
6	0x3d3c9cbd	0.046047915
7	0xbe750019	-0.23925819
8	0xbe8b88fe	-0.27252954
9	0x3e8dfaf6	0.2773053
10	0xbe136456	-0.14393744
11	0x3d5c3188	0.053758174
12	0xbde6f70b	-0.112775885
13	0xbb5bfa29	-0.0033565855
14	0x3d224a3a	0.03962157
15	0x3d32e72c	0.043677494
16	0x3c7fe862	0.015619369
17	0x3e4bb67c	0.19893831
18	0x3e9993c7	0.29995558
19	0x3d5d8156	0.054078422
20	0x3e9eaec2	0.30992705
21	0xba4421e1	-0.0007481855
22	0xbe849c66	-0.25900573
23	0x3e4529ec	0.19254273
24	0xbca03591	-0.019556792
25	0xbe906867	-0.28204653
26	0x3dbf30f4	0.09335509
27	0xbd7a0285	-0.06103756
28	0xbe9d1f56	-0.3068797
29	0xbe6bf411	-0.23042323
30	0x3e38f3ee	0.18061802
31	0x3e228ad3	0.1587327
32	0xbe367445	-0.17817791
33	0xbe4c07a4	-0.1992479
34	0xbe6f5b04	-0.23374563
35	0xbe8a2326	-0.2697994
36	0xbcbfc268	-0.02340813
37	0x3ee0fda9	0.43943527
38	0xbe036e3d	-0.12835021
39	0x3dfb4c1b	0.12270375
40	0xbedefba1	-0.43551353
41	0xbd102ce9	-0.03519908
42	0xbf089aca	-0.5336119
43	0x3cd56422	0.026048724
44	0xbe300222	-0.17188314
45	0x3d68ae27	0.05680671
46	0x3e3f0157	0.18652855
47	0x3e6341bb	0.22193043
48	0x3d1b7dfa	0.037961937
49	0xbd167cb2	-0.036740012
50	0x3d207083	0.0391698
51	0xbd9fbe3b	-0.077999555
52	0xbe4f2dbb	-0.20232289
53	0x3e619c1b	0.22032206
54	0x3e20ece7	0.15715371
55	0xbd480a33	-0.04883785
56	0x3dad1c76	0.08452694
57	0xbe2f0557	-0.1709188
58	0x3e0026d1	0.12514807
59	0x3e3e4fb9	0.185851
60	0xbe45cdfe	-0.19316861
61	0xbda5f389	-0.08103091
62	0xbb84e92e	-0.0040561175
63	0x3eade945	0.33967033
64	0x3e5e5fcc	0.21716231
65	0xbdc895bb	-0.09794184
66	0x3dd8e88d	0.105912305
67	0x3d4dc558	0.05023703
68	0x3dd17344	0.10227063
69	0x3c089e39	0.0083385045
70	0xbd5bf58e	-0.053700976
71	0x3daa6775	0.08320514
72	0x3cd252d5	0.025674263
73	0xbd571cff	-0.052517887
74	0xbd6bfda5	-0.05761494
75	0xbe43da7c	-0.19126314
76	0x3d8e5ac5	0.06950907
77	0x3e563856	0.20919928
78	0x3be15789	0.00687689
79	0xbdfe4e2f	-0.12417256
80	0xbd93f191	-0.072238095
81	0xbd49c486	-0.049259685
82	0x3dbdc281	0.09265614
83	0xbdbb7d5f	-0.09154772
84	0xbd5e60f3	-0.054291677
85	0xbde9125a	-0.113804534
86	0xbdb68663	-0.08912351
87	0x3d6b1337	0.05739137
88	0x3c5db8c3	0.01353282
89	0xbcb1a6b1	-0.02168593
90	0xbccd8f04	-0.02509261
91	0x3e275215	0.16339906
92	0x3d46ef76	0.04856821
93	0x3e64dc34	0.22349626
94	0xbc87d93c	-0.016583078
95	0x3d9845af	0.07435166
96	0xbe0a663a	-0.13515559
97	0xbde8d6e7	-0.11369114
98	0xbd2bb78b	-0.041923087
99	0xbe0cba80	-0.13743019
100	0xbe264d69	-0.16240467
101	0xbe8112c7	-0.25209638
102	0xbe0198fe	-0.12656018
103	0xbd637ccb	-0.055538934
104	0x3e316f8e	0.17327711
105	0x3e008a2e	0.12552711
106	0xbd716f5c	-0.05894409
107	0xbc169b2c	-0.009192269
108	0xbd6db331	-0.05803222
109	0x3da1a1e2	0.07892205
110	0xbda939c2	-0.082629696
111	0x3db60395	0.08887402
112	0xbdea1c29	-0.114311524
113	0x3e09a9be	0.13443658
114	0xbd73276e	-0.059363775
115	0xbdb84e1c	-0.08999273
116	0x3cf71eb8	0.030166015
117	0x3d3de1a4	0.046357766
118	0xbd044c9e	-0.03229963
119	0xbc95dd11	-0.01829389
120	0xbdd9bee7	-0.10632115
121	0x3d2aa0a6	0.041657113
122	0x3cfdce7f	0.030982254
123	0xbe0fec6a	-0.14055029
124	0xbc3f0395	-0.011658569
125	0xbdc192ed	-0.09451852
126	0xbe222314	-0.15833694
127	0xbdaa67d3	-0.08320584
128	0xbd97d857	-0.074143104
129	0x3cb6514c	0.022255562
130	0xbea0dbb5	-0.31417623
131	0x3f62c930	0.8858824
132	0x401cd30d	2.4503815
133	0x3fd85e55	1.6903788
134	0x3f6e1499	0.9300018
135	0x3f8bd0db	1.0923113
136	0x3fe88478	1.8165426
137	0x3e8cb058	0.2747829
138	0x3d952421	0.07282282
139	0xbefccdbd	-0.49375716
140	0xbdd2e60f	-0.102977864
141	0xbe411abb	-0.18857853
142	0xbf3d60d7	-0.7397589
143	0xbefb725e	-0.49110693
144	0x3d7293a9	0.05922285
145	0xbea3b601	-0.31974795
146	0xbe90b50b	-0.28263125
147	0xbe1f17c8	-0.15536416
148	0x3ee1ea0b	0.44123873
149	0xbef25b7f	-0.4733543
150	0xbe2881ac	-0.16455716
151	0x3cbd3136	0.023094755
152	0x3ec376e9	0.3817666
153	0x3f16666f	0.5875005
154	0x3ebc916b	0.36829695
155	0x3e65e44d	0.22450371
156	0x3ef84367	0.48488924
157	0x3ed2b9d1	0.41157392
158	0xbcf0e3ce	-0.0294055
159	0xbebbc151	-0.36670926
160	0xbd4f8ea9	-0.05067316
161	0x3e58c098	0.21167219
162	0x3bfbbaa5	0.007682162
163	0xbe00e110	-0.12585855
164	0xbe280612	-0.16408566
165	0xbf206c19	-0.62664944
166	0xbeb7d1b9	-0.35902193
167	0xbeec5927	-0.46161768
168	0xbeb34ce9	-0.35019615
169	0x3e376047	0.1790782
170	0x3eb51255	0.3536555
171	0x3d52f198	0.051499933
172	0x3d748ec6	0.05970647
173	0xbd9fc15f	-0.078005545
174	0xbda7ba26	-0.08189802
175	0x3daff6f9	0.08592028
176	0xbe90356a	-0.28165752
177	0xbc1848ee	-0.009294732
178	0x3d3045e9	0.04303542
179	0xbe0e2d63	-0.13884501
180	0x3e57e019	0.2108158
181	0x3d23e7aa	0.040015854
182	0x3dc04d94	0.09389797
183	0xbbae5bce	-0.0053210026
184	0x3dd2f70d	0.103010274
185	0xbc82b7a6	-0.015956711
186	0x3e6400d9	0.22265948
187	0x3e9dd2b8	0.30824828
188	0xbdf1caea	-0.11806281
189	0x3f205f6f	0.6264562
190	0xbe7c6120	-0.24646425
191	0x3e905de2	0.28196627
192	0x3e83d27e	0.2574653
193	0xbe82c56b	-0.25541243
194	0xbeea9a59	-0.45820883
195	0xbe87841b	-0.26467976
196	0x3d5329e2	0.051553614
197	0xbe006446	-0.12538251
198	0xbee8a33e	-0.45437044
199	0xbdd04e63	-0.10171201
200	0xbbde0e07	-0.0067765745
201	0xbd8e6639	-0.06953091
202	0xbc549377	-0.0129746115
203	0x3dc1928c	0.0945178
204	0x3c3376fe	0.010953663
205	0xbdb432ef	-0.08798777
206	0x3f6e470e	0.9307717
207	0x3d92ef98	0.07174605
208	0xbce400ba	-0.027832378
209	0xbecd556b	-0.4010423
210	0xbeaaf5cb	-0.3339065
211	0xbe9b7f57	-0.3037059
212	0x3e56dc4f	0.20982479
213	0xbdbf19bd	-0.09331081
214	0x3e193c3a	0.14964381
215	0x3da50aba	0.080586866
216	0x3e967109	0.29383114
217	0xbe0ee40d	-0.13954182
218	0x3d2fa92d	0.042885948
219	0xbdc83334	-0.09775391
220	0xbd8d04c0	-0.068856716
221	0xbeaf6ce1	-0.34262756
222	0x3e2b0346	0.16700467
223	0xbc752dd1	-0.014964537
224	0x3e840bf8	0.2579038
225	0x3e577881	0.21042062
226	0xbbc9a7a7	-0.006154019
227	0xbe2bfbf3	-0.1679533
228	0x3e923816	0.28558415
229	0xbe41dfe5	-0.18933065
230	0x3c33e026	0.010978734
231	0x3e205582	0.15657619
232	0x3ecf3320	0.40468693
233	0x3e35a4e9	0.1773869
234	0x3d6b49c5	0.0574434
235	0xbc9d6c76	-0.019216757
236	0x3bcff15b	0.0063459105
237	0xbd80eddf	-0.0629537
238	0xbe8bb245	-0.27284446
239	0x3e082449	0.13295092
240	0x3db3e3d5	0.0878369
241	0xbead7df7	-0.33885166
242	0x3f08af94	0.5339291
243	0x3cbf2add	0.023335868
244	0x3c8c3da2	0.017119233
245	0xbdf6cc42	-0.12050678
246	0x3d32ef72	0.043685384
247	0x3d30ac99	0.043133352
248	0xbe798b5b	-0.24369566
249	0xbba18192	-0.004928776
250	0xbd2232fe	-0.03959941
251	0x3e535316	0.20637164
252	0xbde472d1	-0.11154712
253	0xbccaf81a	-0.024776507
254	0xbe754dfb	-0.23955528
255	0xbc707bdb	-0.014677967

convs.0.fc_core.bias f4 [64]
0	0x3bd2cf23	0.006433384
1	0xbb4f0bd5	-0.0031592746
2	0x3b0cd2e2	0.0021488
3	0x3ac0012a	0.0014648784
4	0xbab3231e	-0.0013667082
5	0x397db239	0.00024194353
6	0xbcb6e619	-0.022326516
7	0x3c815c9d	0.015791232
8	0xba85bfb6	-0.0010204229
9	0x3caad5d1	0.020853909
10	0xbaa56d66	-0.0012621104
11	0xb819caf8	-3.6667072e-05
12	0x3b7b0fe6	0.0038309037
13	0xbd735fd9	-0.05941758
14	0x3c415fa7	0.01180259
15	0x3b5058f5	0.0031791304
16	0x3a959bd3	0.0011414237
17	0x3a99ffce	0.0011749209
18	0xbaf2b29e	-0.0018516367
19	0x3c2a0405	0.010376935
20	0xba0f1a15	-0.00054589036
21	0x3c18dc11	0.009329812
22	0x386a5b81	5.5875167e-05
23	0x3c565a53	0.013083058
24	0xbb32d2a2	-0.0027286191
25	0x3b682615	0.003542309
26	0x3b886875	0.004162843
27	0x3a86ae77	0.0010275383
28	0xbb319eb0	-0.0027102642
29	0x39a7ec6c	0.0003202887
30	0x3b82ce17	0.003991853
31	0x3ad94876	0.0016577381
32	0x3b0e684f	0.0021729653
33	0xbb03e182	-0.0020123427
34	0xba9609ae	-0.0011446977
35	0xba9f3234	-0.0012145699
36	0x3c9f9cc5	0.019483933
37	0xba965a8e	-0.0011471079
38	0x3d115a44	0.035486475
39	0x3a6caa11	0.00090280274
40	0xbab7eb03	-0.0014031831
41	0xbb54a46c	-0.0032446636
42	0x39a199cc	0.000308229
43	0xbb106a1a	-0.0022035898
44	0x3c9365bb	0.017992845
45	0x3aa39d37	0.0012482767
46	0xbb0321d9	-0.0020009188
47	0xbac16168	-0.0014753761
48	0xbad5c4b5	-0.0016309234
49	0x3a23b5a9	0.0006245026
50	0x3a9d506f	0.001200212
51	0x39a2acde	0.00031027844
52	0xbba44ab9	-0.0050137904
53	0x380a09cc	3.2910888e-05
54	0xbc1f6675	-0.0097290175
55	0xba61e111	-0.00086166064
56	0x3cc8f9b1	0.024533125
57	0x3c8ba8d2	0.017048273
58	0x3ccfc1ea	0.02536102
59	0x38edfb48	0.000113478454
60	0x3cc698ad	0.024242723
61	0x3b45d1db	0.0030184898
62	0xbc500f5e	-0.012698976
63	0xba8e8763	-0.0010874089

convs.0.bn_core.weight f4 [64]
0	0x3f6167b5	0.8804887
1	0x3f733f79	0.95018727
2	0x3f844c59	1.03358
3	0x3f835545	1.0260397
4	0x3f836816	1.026614
5	0x3f80fd3b	1.007728
6	0x3f51d22e	0.81961334
7	0x3fb31022	1.3989298
8	0x3f47c488	0.7803426
9	0x3fa3f177	1.2808064
10	0x3f93d586	1.1549537
11	0x3f516cc6	0.818066
12	0x3f8c0b93	1.0941032
13	0x3f4eb605	0.8074649
14	0x3f5ebe9f	0.87009615
15	0x3f7bc60c	0.9834907
16	0x3f12b435	0.57306224
17	0x3f6276c9	0.884625
18	0x3f545c94	0.82953763
19	0x3fa2f784	1.2731786
20	0x3f6b58e1	0.91932493
21	0x3f6db527	0.9285454
22	0x3f57e785	0.84337646
23	0x3fa12c28	1.25916
24	0x3f81a98b	1.0129865
25	0x3f780739	0.9688602
26	0x3f6dc9dc	0.9288614
27	0x3f96f3cf	1.1793154
28	0x3f98217d	1.188522
29	0x3fa8b92e	1.3181512
30	0x3f6a2a81	0.91471106
31	0x3f32c247	0.69827694
32	0x3f7ca9ed	0.98696786
33	0x3f5acae7	0.85465854
34	0x3f89496b	1.072553
35	0x3f4dfee5	0.80467063
36	0x3fa0f7c3	1.2575611
37	0x3f79ad61	0.9753018
38	0x3fe82359	1.8135787
39	0x3f943509	1.1578685
40	0x3fa39a46	1.2781456
41	0x3f82d9d7	1.022273
42	0x3f4e2798	0.80529165
43	0x3f7c185f	0.9847469
44	0x3fb4ba5f	1.4119376
45	0x3f816e22	1.0111735
46	0x3f801ec6	1.0009391
47	0x3f7bffd0	0.98437214
48	0x3f72b742	0.9481088
49	0x3f5df8d8	0.8670783
50	0x3f6c49ad	0.9229992
51	0x3f742360	0.9536648
52	0x3f641db7	0.8910784
53	0x3f6e00ab	0.9296977
54	0x3f562137	0.8364443
55	0x3f489397	0.78350204
56	0x3f9a9880	1.2077789
57	0x3f441fed	0.76611215
58	0x3f82025f	1.0156974
59	0x3f75d312	0.9602519
60	0x3fb2810b	1.3945631
61	0x3f774220	0.96585274
62	0x3f9a7097	1.206561
63	0x3f757697	0.9588408

convs.0.bn_core.bias f4 [64]
0	0xbecbf3e1	-0.39834502
1	0xbed00666	-0.40629882
2	0xbec3ec91	-0.38266423
3	0xbf0d5820	-0.55212593
4	0xbe38e61c	-0.1805653
5	0xbe4066e1	-0.18789245
6	0xbe689838	-0.22714317
7	0xbecb5ce3	-0.39719304
8	0xbe9823ff	-0.29714963
9	0xbe95a667	-0.29228517
10	0xbe7e848d	-0.24855252
11	0xbf317e58	-0.6933341
12	0xbe9ae231	-0.30250695
13	0xbe6408d8	-0.22268999
14	0xbe39ac5e	-0.18132159
15	0xbe88940c	-0.2667545
16	0xbf26bc27	-0.6513085
17	0xbec3eb04	-0.3826524
18	0xbf034278	-0.512733
19	0xbf0578fb	-0.52137727
20	0xbe735409	-0.23762526
21	0xbe913945	-0.28364006
22	0xbf3a060f	-0.72665495
23	0xbf15fb60	-0.5858669
24	0xbe43968c	-0.19100398
25	0xbed812e8	-0.42201924
26	0xbf15f3df	-0.5857524
27	0xbecfa5bb	-0.4055613
28	0xbeb4f190	-0.35340548
29	0xbe3ee86c	-0.1864335
30	0xbf10baf4	-0.5653527
31	0xbf123491	-0.5711146
32	0xbeca8637	-0.39555523
33	0xbeb687ea	-0.3565057
34	0xbf131b6a	-0.57463706
35	0xbf341f5f	-0.7036037
36	0xbe33bc82	-0.17552379
37	0xbeb4876a	-0.35259563
38	0xbea887d4	-0.3291613
39	0xbe811800	-0.25213623
40	0xbdb87de4	-0.09008387
41	0xbda7c234	-0.08191338
42	0xbf385410	-0.7200327
43	0xbef21ab7	-0.47286007
44	0xbeec73d9	-0.46182135
45	0xbf31ca99	-0.69449764
46	0xbe53e6dd	-0.20693536
47	0xbe42d178	-0.19025218
48	0xbeb0512e	-0.34436935
49	0xbdde601e	-0.10858177
50	0xbeb480d4	-0.35254538
51	0xbe8b5314	-0.2721182
52	0x3e25d087	0.16192828
53	0xbf15eea6	-0.58567274
54	0xbf098868	-0.53723764
55	0xbe9c6d42	-0.30552107
56	0xbf016870	-0.50549984
57	0xbf041647	-0.5159649
58	0xbeed8e14	-0.4639746
59	0xbf15c4a7	-0.5850319
60	0xbea663fc	-0.32498157
61	0xbe5bd22f	-0.21466897
62	0x3ea13cdf	0.31491753
63	0xbf203a3e	-0.6258887

convs.0.bn_core.running_mean f4 [64]
0	0x41892009	17.140642
1	0x41babdf4	23.34275
2	0x4145b2c6	12.356146
3	0x4175b839	15.357476
4	0x3d5a486f	0.053291734
5	0x410ded29	8.8704
6	0x41ca66ad	25.300135
7	0x408e4dac	4.4469814
8	0x413957ef	11.583968
9	0x40375137	2.864332
10	0xc0362dc3	-2.846543
11	0x3eae996f	0.34101436
12	0x41a3a1a2	20.453922
13	0x40ac3a59	5.3821225
14	0xc13e8e48	-11.909737
15	0xc12cd772	-10.802599
16	0xc1081fbd	-8.507749
17	0x40a43839	5.131863
18	0x414cb5af	12.794356
19	0x41218942	10.09601
20	0xbf90cf8a	-1.1313336
21	0xc1b70309	-22.876482
22	0xc0e05389	-7.010197
23	0x416f4b46	14.955877
24	0x40f05569	7.510426
25	0x41907a2a	18.05965
26	0xc12b63f4	-10.711903
27	0x41f32f3e	30.398067
28	0x40e22b5f	7.0677943
29	0x40a8784c	5.2646847
30	0xc0f45663	-7.6355453
31	0xc127887b	-10.47082
32	0x41ae49d1	21.786043
33	0xc0fdd50c	-7.9322567
34	0xc11dcf89	-9.863168
35	0x4104227b	8.258418
36	0x41b6636d	22.798548
37	0x3fde389e	1.7361028
38	0x3d035395	0.032062132
39	0x411382e1	9.219453
40	0x3f7fb5f9	0.99887043
41	0xc01bc2ed	-2.4337723
42	0x40e250f9	7.0723844
43	0xbf2f637d	-0.6851118
44	0x410d0abf	8.815124
45	0x41240147	10.250312
46	0xbf8dd313	-1.108004
47	0x40eda320	7.4261627
48	0x4105c0eb	8.359599
49	0x412bb84a	10.732492
50	0xc0350f97	-2.8290765
51	0x40b18e91	5.548653
52	0x415aacf2	13.667223
53	0xc04c72ba	-3.1945024
54	0xc12d53cc	-10.832958
55	0x40d29e0c	6.581793
56	0x4157a4fc	13.477779
57	0xc15cb2a5	-13.793614
58	0xc09479df	-4.639877
59	0xc0cf6bd1	-6.481911
60	0x40a9f36f	5.310966
61	0x416ccb80	14.799683
62	0xc1a2daf3	-20.356909
63	0xc1107024	-9.027378

convs.0.bn_core.running_var f4 [64]
0	0x413b05f2	11.6889515
1	0x417b7749	15.716622
2	0x421246e1	36.569218
3	0x4243191b	48.774517
4	0x4118241c	9.508816
5	0x424158b1	48.336613
6	0x41ca85eb	25.31539
7	0x401c1aab	2.4391277
8	0x42391828	46.27359
9	0x401e081a	2.4692445
10	0x41d9c221	27.21979
11	0x4166877b	14.408076
12	0x427c01bf	63.001705
13	0x40df885b	6.985395
14	0x426b742a	58.86344
15	0x41a9b581	21.213625
16	0x41aecec5	21.850962
17	0x41b1b84b	22.214987
18	0x41b80b08	23.005386
19	0x4113600c	9.210949
20	0x4163dcd8	14.241417
21	0x41c8dceb	25.10787
22	0x41ad819b	21.688284
23	0x418b0ef7	17.382307
24	0x41ef55ae	29.916836
25	0x4175f0b3	15.371264
26	0x416657dd	14.396451
27	0x4305d457	133.82945
28	0x41d8e19f	27.110167
29	0x4135a931	11.3538065
30	0x4187ab5a	16.958668
31	0x41d9f4ce	27.244534
32	0x42280569	42.005283
33	0x4181ef66	16.241894
34	0x426fe3ea	59.972572
35	0x42111c67	36.277737
36	0x42801c67	64.05547
37	0x4135427b	11.328731
38	0x4101c311	8.110124
39	0x414ed698	12.927391
40	0x415f8e62	13.972261
41	0x41899650	17.198395
42	0x40b43eee	5.632682
43	0x411a740d	9.653333
44	0x40e3c098	7.11726
45	0x41602ed7	14.0114355
46	0x4169fb58	14.623863
47	0x41f86a9d	31.052057
48	0x4181671b	16.175344
49	0x419819ac	19.012535
50	0x41906a93	18.052038
51	0x41b21a71	22.26291
52	0x423f17e4	47.77333
53	0x4106b50e	8.419203
54	0x4165e4c8	14.368355
55	0x41a743a5	20.90803
56	0x4115ed7a	9.370478
57	0x41a9078b	21.128683
58	0x409f171d	4.9715714
59	0x410e42fe	8.8913555
60	0x3fe17ff8	1.7617178
61	0x42195720	38.335083
62	0x4280b71d	64.35764
63	0x41cf6701	25.925295

convs.1.fc_filter.weight f4 [64, 169]
0	0x3d960ad4	0.07326284
1	0x3dd10e61	0.10207821
2	0xbe6493a9	-0.22321953
3	0xbd621284	-0.05519344
4	0x3c241f15	0.010017176
5	0x3e088405	0.13331611
6	0xbe798f0f	-0.24370979
7	0xbe938ff9	-0.2882078
8	0xbdd4349e	-0.103615984
9	0xbdf5db19	-0.1200468
10	0x3e328a8f	0.17435668
11	0x3ddd8c13	0.10817733
12	0xbd4d8fc3	-0.05018593
13	0xbdc0039a	-0.09375687
14	0xbe83fc4a	-0.2577842
15	0x3e4281b1	0.18994786
16	0x3dba0505	0.09082989
17	0xbe03761c	-0.12838024
18	0x3e61ca87	0.22049914
19	0xbbe35169	-0.006937195
20	0x3c3af4eb	0.011410932
21	0xbe75454f	-0.2395222
22	0x3db2e7ea	0.0873564
23	0xbd9d8194	-0.07690731
24	0xbcc48dbb	-0.023993364
25	0x3de033f0	0.10947406
26	0x3e4d37bb	0.2004079
27	0xbe3947e4	-0.1809383
28	0x3e0507a1	0.12991191
29	0xbd75a8b9	-0.05997536
30	0x3daa9de0	0.083308935
31	0xbd1ac624	-0.037786618
32	0x3db59c22	0.088676706
33	0x3e6008af	0.21878313
34	0xbe37c861	-0.17947532
35	0x3e95ab57	0.29232284
36	0x3e08e974	0.13370305
37	0xbe0bbde5	-0.13646658
38	0xbde9ddae	-0.11419235
39	0xbdbd12af	-0.09232079
40	0xbe2ea0a1	-0.17053463
41	0xbdc31f69	-0.095274754
42	0x3c8e4b9c	0.017370038
43	0xbda661d7	-0.0812413
44	0x3d89055d	0.06690476
45	0x3db52b36	0.088461325
46	0x3db30de4	0.08742884
47	0x3d4390b7	0.047745433
48	0x3e21f4e6	0.15816078
49	0xbdad653b	-0.08466574
50	0x3e6ed975	0.23325141
51	0x3ed6fede	0.41991323
52	0x3d68a143	0.056794416
53	0x3e1dfef0	0.15429282
54	0xbe231795	-0.15926965
55	0x3e0fffa4	0.14062363
56	0x3e305718	0.17220724
57	0x3d3da001	0.04629517
58	0xbda8e64c	-0.08247051
59	0xbe0a92d0	-0.13532567
60	0xbc836855	-0.01604096
61	0xbe07ecaf	-0.13273881
62	0xbda83215	-0.082126774
63	0xbd8ee04c	-0.06976375
64	0xbe0dc53f	-0.13844775
65	0xbcbc6f82	-0.02300239
66	0x3d9566a7	0.0729497
67	0xbe80199c	-0.25019538
68	0xbe36c427	-0.17848264
69	0xbe064bfb	-0.13114922
70	0xbdb52608	-0.088451445
71	0x3e5214fb	0.20515816
72	0x3d39e16d	0.045381
73	0xbe7604d7	-0.24025284
74	0xbd95788f	-0.07298385
75	0x3d259690	0.04042679
76	0x3e3a8807	0.18215953
77	0xbcd17fe0	-0.02557367
78	0xbc983501	-0.018579962
79	0x3eb94bd2	0.3619066
80	0xbde9137f	-0.11380672
81	0xbcd69a1b	-0.02619653
82	0x3e350d33	0.17680816
83	0x3df4a8b1	0.11946238
84	0x3e0fa4fe	0.14027783
85	0x3dca6837	0.09883159
86	0x3d654fef	0.055984434
87	0x3e590630	0.21193767
88	0x3d9ab659	0.07554311
89	0x3e0df7c4	0.13864046
90	0xbea4f7b8	-0.32220244
91	0xbd872763	-0.06599309
92	0xbe46b1f1	-0.19403817
93	0x3d3bc896	0.04584559
94	0xbedf6f0f	-0.43639418
95	0xbe7d5d9e	-0.24742743
96	0x3e9c5a61	0.30537704
97	0x3e14a345	0.14515407
98	0xbdda08fd	-0.10646246
99	0xbd806174	-0.06268588
100	0xbdbabd84	-0.091181785
101	0x3ecbb04e	0.39782947
102	0x3f0134f5	0.5047143
103	0x3e50bac0	0.2038374
104	0x3e6d1f5d	0.23156495
105	0xbf0e0629	-0.5547815
106	0x3e624fe7	0.22100793
107	0x3e6a108e	0.22857878
108	0x3e137a19	0.14402045
109	0x3e9db07a	0.30798703
110	0xbe67aaf2	-0.22623804
111	0xbded8e5d	-0.11599419
112	0xbe536518	-0.20644033
113	0x3a90f4c8	0.0011059279
114	0xbe7fc5f0	-0.24977851
115	0xbd4e42c9	-0.05035666
116	0xbebbc3df	-0.36672875
117	0xbd07fe4d	-0.033201504
118	0x3e37688e	0.17910978
119	0x3d41d3d7	0.047321167
120	0x3ce12cf6	0.02748726
121	0x3dd20584	0.10254958
122	0x3d273cbf	0.040829416
123	0xbda55a54	-0.08073869
124	0x3e134ade	0.14384028
125	0x3e80f21c	0.25184715
126	0xbe00207f	-0.12512396
127	0x3e2beb7e	0.16789052
128	0xbd8d1b90	-0.06890023
129	0x3cb34a41	0.021885993
130	0x3e85a2ef	0.2610087
131	0xbf6d7eda	-0.92771685
132	0xbfb5a121	-1.4189798
133	0xbe8f48fe	-0.27985376
134	0x3e4b00e4	0.19824558
135	0xbe7fa59b	-0.24965517
136	0xbe1630b3	-0.14667015
137	0xbf97abe9	-1.1849338
138	0x3f119e7e	0.56882465
139	0x3f802913	1.0012535
140	0x3f19f1c4	0.6013453
141	0xbe1940d6	-0.14966139
142	0xbe823ebf	-0.25438496
143	0xbe7b7c08	-0.24559033
144	0xbd9ade7a	-0.07561965
145	0x3edcb149	0.43104008
146	0x3f0d9ff9	0.55322224
147	0xbeadcf07	-0.33947012
148	0xbf5e7110	-0.8689127
149	0xbf55c914	-0.83509946
150	0x3df6fa25	0.1205943
151	0x3f26f153	0.6521198
152	0x3ebf84f6	0.3740613
153	0xbebdad44	-0.37046254
154	0xbf16d79b	-0.5892274
155	0xbe891a16	-0.26777714
156	0xbe404722	-0.18777135
157	0x3e1454e1	0.14485504
158	0xbe0f40b3	-0.13989525
159	0x3ebf73bb	0.37392983
160	0x3f2da992	0.6783687
161	0x3f69ca84	0.9132464
162	0x3ed61b47	0.41817686
163	0xbe1ad870	-0.15121627
164	0x3db05f9a	0.086119846
165	0xbbc33afc	-0.005957959
166	0x3d4ed990	0.050500453
167	0xbe961bd2	-0.293181
168	0xbd57a994	-0.052651957
169	0xbe414b01	-0.18876268
170	0xbe098f80	-0.13433647
171	0x3d43328d	0.04765563
172	0xbe04e9b7	-0.1297978
173	0x3ca8be36	0.020598512
174	0x3dc468c9	0.09590299
175	0xbf1031fa	-0.5632626
176	0x3cec791c	0.028866343
177	0x3d533889	0.051567588
178	0x3ea9b67e	0.33147043
179	0x3e5a341e	0.21308944
180	0x3df6997c	0.120409936
181	0x3e342c71	0.17595078
182	0x3e85996f	0.26093623
183	0xbe9508ca	-0.29108268
184	0x3e8963f2	0.26834065
185	0x3e1d9778	0.15389812
186	0x3dbdeeb8	0.092740476
187	0xbe9dcd38	-0.30820632
188	0x3da245a6	0.07923441
189	0xbdd7fa63	-0.10545804
190	0xbe43a9c8	-0.19107735
191	0xbed29c20	-0.4113474
192	0x3da66d43	0.08126309
193	0xbda82a52	-0.08211197
194	0x3e8b254f	0.27176902
195	0x3c211ca7	0.009833491
196	0x3e404f2b	0.187802
197	0xbe8560b9	-0.26050356
198	0xbbab0d15	-0.0052200654
199	0xbead1791	-0.33807042
200	0xbd139e31	-0.036039535
201	0x3e706158	0.23474634
202	0x3e2dc72c	0.1697051
203	0x3e2d4206	0.16919717
204	0x3e4b51c0	0.19855404
205	0x3ddd75fb	0.108135186
206	0x3e9ac109	0.302254
207	0x3e7905d0	0.24318624
208	0x3d978aaf	0.07399499
209	0x3e6438fe	0.22287366
210	0x3c200e52	0.009769039
211	0xbe83dba4	-0.2575351
212	0xbdd32c27	-0.10311156
213	0x3dd52a83	0.10408499
214	0xbccf8b64	-0.025335021
215	0x3cabf8ba	0.020992626
216	0x3dd4cdef	0.10390841
217	0x3a7257bf	0.00092446426
218	0xbe810e38	-0.2520616
219	0xbdc54667	-0.09632569
220	0x3d84af4c	0.06478748
221	0xbd400b10	-0.04688555
222	0xbe253f44	-0.16137415
223	0x3d79b5a0	0.060964227
224	0x3e69ab74	0.2281931
225	0x3e9156ea	0.28386623
226	0x3ed73c4c	0.4203819
227	0xbe70f81b	-0.23532145
228	0x3b825f12	0.0039786184
229	0x3d1c8807	0.038215663
230	0x3d96237b	0.07330986
231	0xbee31fa1	-0.44360068
232	0x3c91853a	0.017763723
233	0xbe49837a	-0.1967906
234	0xbd2136c9	-0.039358888
235	0xbc89e068	-0.016830638
236	0x3e7532ce	0.23945162
237	0xbdcf0c35	-0.1010975
238	0x3c8b7628	0.017024115
239	0x3e1d21f8	0.1534499
240	0xbb6a4a62	-0.0035749902
241	0x3e09fc58	0.13475168
242	0xbe3ff1f2	-0.18744639
243	0xbdd1ee6e	-0.10250555
244	0x3e11ecbf	0.14250468
245	0xbe38a425	-0.18031366
246	0xbdcf36b1	-0.101178534
247	0xbc8ca8bf	-0.017170308
248	0xbe08ca9c	-0.1335854
249	0x3dbbf4c6	0.09177546
250	0xbd85bfb2	-0.065307036
251	0xbe7e30d3	-0.24823312
252	0x3e37c2b9	0.17945375
253	0xbd123740	-0.03569722
254	0x3e4a69d5	0.19766934
255	0xbd189df7	-0.037260022

convs.1.fc_filter.bias f4 [64]
0	0xbb94de72	-0.004543119
1	0xbb1f2537	-0.0024283656
2	0x3b0d72f0	0.00215834
3	0xbbf466fd	-0.007458566
4	0xbc833772	-0.01601765
5	0xbc00221c	-0.007820632
6	0xba5bc7d8	-0.0008383966
7	0x3bc692f6	0.0060599996
8	0xbc2f48ce	-0.01069851
9	0x3a73cb4e	0.0009300009
10	0xb955833d	-0.00020362153
11	0x3cbca4b0	0.023027748
12	0xba320e13	-0.00067922584
13	0xbb0f2df5	-0.002184746
14	0x3a085873	0.0005201168
15	0xbb632d10	-0.003466431
16	0x3bba23b3	0.005680525
17	0x3c5280db	0.012848104
18	0x39d95774	0.00041454623
19	0xbb3b754b	-0.0028603848
20	0xbae376b5	-0.0017354103
21	0xbbab611b	-0.0052300817
22	0xbcdc2371	-0.026872369
23	0x3a590212	0.00082782016
24	0xbbab0882	-0.00521952
25	0x3c244131	0.0100253085
26	0x3a79de68	0.00095317373
27	0xbb1c349b	-0.0023835066
28	0x3b6acf82	0.003582925
29	0x3c0d355a	0.008618677
30	0xbac9b656	-0.0015389423
31	0x3ad0d14a	0.0015931514
32	0xbbee8531	-0.0072790612
33	0xbb3f516c	-0.0029192818
34	0xbb7783f2	-0.0037767855
35	0xbe2a02c7	-0.16602622
36	0x3b0fb7a4	0.0021929527
37	0xbad3088c	-0.001610057
38	0x3bcfc16c	0.0063401964
39	0x3be5e828	0.0070162006
40	0xb981c5fa	-0.000247523
41	0xb3d3590f	-9.841653e-08
42	0xbb48795a	-0.003058991
43	0xbbd3498d	-0.006447977
44	0xbb77c964	-0.0037809247
45	0x3c635758	0.013875805
46	0xbb214c7f	-0.0024612246
47	0xbbc6c300	-0.0060657263
48	0xbc4ddcc5	-0.012564843
49	0xb9cc42be	-0.0003895964
50	0xbaa9fb9a	-0.001296866
51	0xbc100956	-0.008791288
52	0x3a0b2372	0.0005307711
53	0xba05de76	-0.00051066966
54	0xba4ddc24	-0.0007852933
55	0xba59e76f	-0.00083123794
56	0xbb4a4f7a	-0.0030870126
57	0x3ac4bd23	0.001500998
58	0x3a3f4c49	0.0007297439
59	0xba2ea9e9	-0.0006662892
60	0x3ad22d99	0.0016035318
61	0x3993aeef	0.0002816836
62	0x3ac9c009	0.0015392314
63	0xbb95bf47	-0.004569921

convs.1.bn_filter.weight f4 [64]
0	0x402ff5f5	2.749387
1	0x3fbe6421	1.4874307
2	0x3fbf0d91	1.4926015
3	0x3fec8dca	1.848077
4	0x40110305	2.2658093
5	0x401835cd	2.3782837
6	0x3ff94291	1.947344
7	0x3fcf79bf	1.6209029
8	0x401604b9	2.3440382
9	0x3fe28edc	1.7699847
10	0x3f9c6369	1.2217838
11	0x3ff69ca8	1.9266558
12	0x3fdd50e6	1.7290313
13	0x3f5b64c3	0.85700625
14	0x3fba1bb1	1.4539701
15	0x3fc206a3	1.5158275
16	0x3fbb5623	1.4635662
17	0x4011b15c	2.2764502
18	0x3fd26a59	1.6438705
19	0x3fb1e83c	1.3898997
20	0x3f8879c5	1.0662161
21	0x4007ed62	2.1238637
22	0x401f6f07	2.4911516
23	0x4031fb16	2.78095
24	0x401e2827	2.4712007
25	0x4010ac93	2.260533
26	0x3f8f676e	1.1203439
27	0x3fc29501	1.5201722
28	0x3fb5e6d4	1.4211068
29	0x3fccb4bf	1.5992659
30	0x3faec468	1.3653688
31	0x3fe30f50	1.7739048
32	0x40455247	3.0831468
33	0x3fbc06b2	1.4689543
34	0x3fc10f9f	1.5082892
35	0x40c2be02	6.0856943
36	0x40144583	2.3167427
37	0x3fb8c2f2	1.4434493
38	0x3fafb5f9	1.3727409
39	0x3fe90b18	1.820651
40	0x3f7d0fd1	0.9885226
41	0x3f6edf90	0.9330988
42	0x3fb2fde0	1.3983727
43	0x3fe39f79	1.7783042
44	0x3fbd6fac	1.4799705
45	0x3fdcc76b	1.7248358
46	0x3fabbeb4	1.3417573
47	0x3fc27159	1.5190841
48	0x4018119b	2.3760746
49	0x3fc284d9	1.5196792
50	0x3f8575e3	1.0426601
51	0x3fe2f1f3	1.7730087
52	0x3fa5d24a	1.29548
53	0x3f8f7c53	1.1209816
54	0x3fabc23c	1.3418651
55	0x3fb71e70	1.4306164
56	0x3fad542c	1.3541312
57	0x3fd3b70e	1.6540239
58	0x3fb8c7a2	1.4435923
59	0x3fa1a023	1.2626995
60	0x3fbcff67	1.4765443
61	0x40005893	2.0054061
62	0x3fec0eb4	1.8441987
63	0x3fc34229	1.5254565

convs.1.bn_filter.bias f4 [64]
0	0xbf09af14	-0.53782773
1	0xbe5527a6	-0.20815906
2	0xbed3c758	-0.41363025
3	0xbec8e414	-0.3923651
4	0xbeffd898	-0.49969935
5	0xbe7c0e37	-0.24614798
6	0xbdf36ef0	-0.11886394
7	0xbebcda52	-0.36885315
8	0xbf3193fe	-0.69366443
9	0xbec66940	-0.38752174
10	0xbe8c269e	-0.27373213
11	0xbf4ee828	-0.8082299
12	0xbec7bbc3	-0.39010438
13	0xbeae1b98	-0.34005427
14	0xbe8e1929	-0.2775357
15	0xbf012db0	-0.5046034
16	0xbf037381	-0.5134812
17	0xbe8ed747	-0.2789862
18	0xbeb5021c	-0.35353172
19	0xbebfd4a8	-0.3746693
20	0x3d0af06d	0.033920694
21	0xbf1ecbac	-0.6202953
22	0xbf3105d7	-0.69149536
23	0xbe78b760	-0.24288702
24	0xbec872c0	-0.39150047
25	0xbe38ba11	-0.18039729
26	0xbe01e5ab	-0.12685268
27	0xbe530a2d	-0.2060935
28	0xbe863f7e	-0.26220316
29	0xbdd899f5	-0.1057624
30	0xbea11c59	-0.3146694
31	0xbea1d61a	-0.3160866
32	0xbe310e23	-0.17290549
33	0xbeab25e0	-0.33427334
34	0x3eb84050	0.35986567
35	0xbfad747f	-1.3551177
36	0xbf55686c	-0.8336246
37	0xbdb06a89	-0.0861407
38	0xbe937fd4	-0.28808463
39	0xbe202071	-0.15637375
40	0xbe87ceaa	-0.2652486
41	0xbcee1b7c	-0.02906584
42	0xbebdd0dd	-0.37073413
43	0xbe81ef43	-0.25377855
44	0xbe40226c	-0.18763131
45	0xbeed8ef5	-0.4639813
46	0xbe8d4686	-0.27592868
47	0xbed53414	-0.41641295
48	0xbe0d1073	-0.13775806
49	0xbdaa662f	-0.08320271
50	0xbecc643a	-0.39920217
51	0xbf04a79c	-0.5181825
52	0xbf1626f3	-0.5865318
53	0xbea6036b	-0.32424483
54	0xbe9d37c8	-0.3070662
55	0xbeaeae2e	-0.34117264
56	0xbf0fa315	-0.5610822
57	0xbee38ee2	-0.44444948
58	0xbeab98a6	-0.335149
59	0xbee7f675	-0.4530522
60	0xbe2456af	-0.16048692
61	0xbed065b7	-0.40702602
62	0xbe7b2945	-0.24527462
63	0xbe888218	-0.26661754
